model/FreshnessDetector.pt (torch_old, 73659 bytes, 8 tensors)

conv1.weight f4 [16, 3, 3, 3]
00000000: bd73 36be fa3e 51be 60b7 a03d b2f3 c5bb
00000010: 66fa 23be d2ec 87be 5151 023e 28b7 e63d
00000020: d2d2 2bbe f4fd 4ebe da69 51be fe90 25be
00000030: e6c9 26be 93fd 193e 45d3 90be 1b8e 66bd
00000040: 2b74 d3bd 8494 2c3e 8f76 963d cd77 923d
00000050: c503 023e 56f3 ff3c 326f 693e 066f c43c
00000060: e1c8 12bd 8c01 643c 0769 aa3d 3c1f 333e
00000070: c96b abbd cca1 323e acf3 1fbc 08f8 31be
00000080: f5ab eabd c9ca 00bd 9f56 09be 11a5 f23d
00000090: b014 63be 6245 aa3d 5af5 f1bb 3965 e33c
000000a0: 3bab 5b3d 3e08 e7bd bfb6 913d 18ec debd
000000b0: ea2f 523d 1f54 2ebe 3ff3 6c3d ba84 853c
000000c0: 3ac1 763d 5a89 ee3c dbb9 c4bd 805d 72be
000000d0: d5f4 79bd c022 51be 8bc9 1fbd e54e 1f3d
000000e0: 8f73 2fbd 0b71 dbbc 80c9 003e ba9d 933c
000000f0: 7f95 603d 9efb e63d de34 6cbd 80bf 07be
00000100: 7635 d8bd 450e 953d e0ea b33c aec7 333e
00000110: d388 853c 0df4 8bbd adf6 93bd 4728 4fbe
00000120: e1e5 31bd 4b4e d03d 492c 83bd 5ca3 eabd
00000130: 6558 adbd e60d ca3d 16c4 17bd 5ff0 b3bd
00000140: bb15 873c 87e7 62bd 5add 3e3e aeef 4cbe
00000150: ff82 ea3d 0768 38be 95a4 10be 0a14 b0bd
00000160: cb4e 33bd fd92 a2bd a783 b7bc c7c2 573d
00000170: 67db eb3d 98da cabd 4ed5 c33c 26a1 3fbe
00000180: 0ff6 aabb 1115 ba3a 69a4 4cbe 7349 82bd
00000190: a5f6 4ebe 9091 b8bc 0b94 89bd 7d02 40bd
000001a0: 594b d73d bdb0 31be 2fd1 5cbe d3fa 5bbe
000001b0: 5ea9 acbd 50eb 023c 90df 08be 2ab4 f43d
000001c0: 11e1 023e 8cdb d6bd f2d7 17bd 37d1 47be
000001d0: 00fb 0a3e a158 013d 46b2 11bd 37fb ebbd
000001e0: 6024 0fbe 0644 533d 8e07 08be 6a56 0b3e
000001f0: 900d 1f3e f03f 213e de34 9a3c 9762 afbd
00000200: 94e1 913e 6d3e 7c3d 1e50 823e 5ca7 823e
00000210: 57d6 463d 76dc 1d3e 9ff3 b3bc d5ed 2ebe
00000220: b18f a8be b3c7 a2bd afe6 53be c873 f3bd
00000230: e70e d0bc d91e 093e 502b 103e 6641 da3d
00000240: 4fe8 7dbc e703 013d 9048 3e3e c229 3b3e
00000250: d090 43be 25b6 d5bd 15de 7e3d 6a88 be3d
00000260: efe9 31be a08e c83d c62d 0bbe 7788 26bc
00000270: 008e 03be ae3a 0d3e 60fa 083e b858 1d3e
00000280: 7970 d6bd 34b3 8d3d b38d 3cbe 74b0 21be
00000290: 92c3 77be 03db 0ebe 4bcc 8f3d 7a4c cebd
000002a0: b985 5a3e 6ee4 a2be 9df2 843b c2c5 563e
000002b0: 93f9 ec3d 85c7 09be 2c4e 2f3e f4e1 98bc
000002c0: 860f 463e e696 863e 1e3a 2cbe 85e9 853d
000002d0: 9e40 10bd 75d4 e8bc 4440 f83d f180 85bd
000002e0: fe36 16be bf0f d23d b60d b23d 0552 6bbe
000002f0: 22a1 b93d 4236 c3bd 6ffc 35be 2ff2 3f3e
00000300: 0618 01bd 4d35 88bd 743f 253e 0699 e8bd
00000310: d797 43be f585 413e d310 983d 725b babd
00000320: 3275 de3d 1d55 a23b 097c 1c3e 1495 853e
00000330: 0e9d 3dbe 55db 4abd 23a8 483e 138f 09be
00000340: d146 1fbd 35f2 a3bd 06a2 e2bd c743 183c
00000350: a978 9d3d fa1f 03be 72fe 7d3d dbaa 2e3e
00000360: afe4 05be 9d4c 5cbd cc4e 173d d815 6fbe
00000370: fc24 52be 5f73 f03d 04ab 93bc aa9f f83d
00000380: 0934 943d 3380 713c 4235 553d 1d7f 78bd
00000390: 9264 54be 1bc7 2abd 5776 273e 7eab 0c3e
000003a0: 2432 a9bc a9f6 40be 4b01 e03c 8306 8f3e
000003b0: e4f7 d5bd 9ec2 5d3d 78d7 da3d 7b16 8a3e
000003c0: a53b 0e3e 34e6 1b3e 1400 24bc 2f8b 553d
000003d0: 8c16 0a3c 473d 24be be62 913c 3375 a7bd
000003e0: de9f 4c3e 8b34 553e 66d6 9b3c 48a8 823e
000003f0: 0143 2c3e 9e96 d53d d858 14be 9b3d 423e
-0.17817588 -0.2043418 0.07847476 -0.0060410136 -0.16013488 -0.26547867 0.12726332 0.11265403
-0.1677964 -0.20214063 -0.20450535 -0.16168591 -0.16287956 0.15038137 -0.28286186 -0.056287866
-0.10324892 0.16853529 0.07346832 0.071517564 0.1269675 0.031243961 0.22796324 0.023978721
-0.035836104 0.013916384 0.083208136 0.17492384 -0.08370168 0.17444533 -0.009762686 -0.17379773
-0.114585795 -0.03144339 -0.1341195 0.1184789 -0.2217586 0.08314015 -0.0073839845 0.027758228
0.053630095 -0.11280869 0.07114934 -0.10884875 0.051315226 -0.17024277 0.057849165 0.01629864
0.06024287 0.029118229 -0.096057616 -0.2366848 -0.061024506 -0.20423412 -0.039010566 0.0388936
-0.042834815 -0.026787302 0.12576866 0.018019546 0.05483007 0.11278461 -0.057667606 -0.13256645
-0.10557072 0.07278112 0.021962583 0.1755664 0.016300594 -0.06833658 -0.07224784 -0.20230208
-0.04343212 0.10171183 -0.06404931 -0.114569396 -0.084641255 0.09865932 -0.037052236 -0.087860815
0.016489854 -0.055396583 0.18639126 -0.20013306 0.11450767 -0.18008433 -0.14125283 -0.08597572
-0.043776315 -0.07938192 -0.022401644 0.05267599 0.11516457 -0.09904975 0.023905423 -0.18713817
-0.0052173208 0.0014196952 -0.19984592 -0.063616656 -0.20211275 -0.022530347 -0.0671769 -0.046877373
0.10512418 -0.17352577 -0.21564172 -0.214824 -0.08430742 0.007990673 -0.13366532 0.11948426
0.12781169 -0.10491094 -0.037071176 -0.19513403 0.13572311 0.031578664 -0.035570405 -0.11522525
-0.1397872 0.051578544 -0.13284132 0.13607183 0.15532517 0.15747046 0.018824037 -0.085637264
0.28492415 0.06158297 0.2545175 0.2551831 0.048544254 0.1541613 -0.021966754 -0.17082913
-0.32922128 -0.07948246 -0.20693468 -0.11887318 -0.025397731 0.13390674 0.14079022 0.10657005
-0.015497281 0.031497862 0.18582368 0.18277648 -0.1909821 -0.10435132 0.062223513 0.09303363
-0.17374395 0.097928286 -0.1359168 -0.010164372 -0.12847137 0.13791916 0.1337676 0.15365875
-0.10470671 0.06918946 -0.18413429 -0.15789968 -0.24195698 -0.13950734 0.07021388 -0.100731805
0.21340074 -0.31814903 0.004057242 0.20973876 0.1157104 -0.13455017 0.17119664 -0.01866243
0.19341859 0.26287 -0.16819045 0.06538681 -0.035217874 -0.02842162 0.12121633 -0.06518734
-0.14669415 0.102569096 0.086940214 -0.22980507 0.09063937 -0.09531833 -0.17772077 0.1874473
-0.03151705 -0.06650791 0.16137487 -0.11357312 -0.19100891 0.18898757 0.07425084 -0.09099473
0.10862197 0.004953994 0.1528169 0.260903 -0.18516943 -0.049525578 0.19595389 -0.13433485
-0.038885895 -0.08005182 -0.1106606 0.009293503 0.0768903 -0.12805167 0.062010236 0.17057364
-0.13075517 -0.053784 0.03694038 -0.23348176 -0.20521921 0.11740755 -0.018025883 0.121398285
0.072364874 0.014740038 0.052052744 -0.0606681 -0.2074149 -0.041693788 0.16353737 0.13737294
-0.020653792 -0.18844093 0.027344367 0.27934656 -0.10447672 0.05414068 0.10685629 0.26970276
0.1388994 0.15224534 -0.010009784 0.05213469 0.008428227 -0.16039 0.01774728 -0.08176651
0.1998286 0.20820825 0.019023132 0.25519013 0.16822435 0.104291186 -0.14487016 0.18968813

conv1.bias f4 [16]
00000000: b7a6 2ebd 03fc 803d 9819 543e 3221 413c
00000010: 80f2 8bbb 230c 22be b07c 24be 2818 d83d
00000020: c659 203d ba19 953d 6095 c73d c12a 85bd
00000030: 4107 53be fcc0 f3be 2443 cabd e5e5 103d
-0.04263946 0.062980674 0.20712888 0.0117877 -0.0042708516 -0.15824942 -0.1606319 0.105514824
0.039148115 0.072802976 0.09745288 -0.06502295 -0.20608236 -0.47608173 -0.09876087 0.035375495

conv2.weight f4 [8, 16, 3, 3]
00000000: 4ab7 bd3d 40f4 bbbc 02af deba c24a 4bbd
00000010: 8732 b6bd 819f 1d3d 8e00 82bd bad9 273c
00000020: fd47 a8bd 1a78 80bd 538b 34bd 7261 18bd
00000030: faae cb3b b9c7 683b 1a00 5a3d e0bd fcbc
00000040: 7e40 a83d 3bc1 5a3d 4c9f dcbd b270 d2bd
00000050: 516b d1bd 41aa bd3c e433 92bc e397 e0bd
00000060: 9222 89bd 7bf1 57bd 5bed d7bd fa0f 993d
00000070: 02b5 1f3e 484f f93c c825 20bd ae3c d93d
00000080: e6b2 6cbc b30e 7b3c 51b5 2f3d e5f8 11bd
00000090: f007 393d e703 ac3b 2a88 c73d 2365 bebc
000000a0: 0532 013e eec9 8cbd 7dd9 393c bb87 063e
000000b0: 1ebb a93b 0e65 563d 776a eb3d be9b 223e
000000c0: 3cae df3d 7475 063d cf0f 213e 819b 573e
000000d0: fe42 2a3e 766c ccbb ca84 ea3d 7e3c 0b3e
000000e0: bb76 143e 8c3b 253d e2ef 293e 677c f63b
000000f0: e902 293e fc15 bbbc c101 5cbd 50e0 0abd
00000100: 5b61 33bd dfa0 993c 627a 7dbd bd93 ca3c
00000110: 7502 3c3d ab70 4dbc 4438 3e3d 904f bebd
00000120: 1bca 793c ce4b 68bb 589a d03d 4789 b83c
00000130: 576b 393c 17e0 a83a 141f 383e e58e 683c
00000140: cd00 88bd 7c93 84bd ae2f ddbd 8f30 80bd
00000150: f6df 7cbd c641 bbbc 3b18 4b3d e10f 953c
00000160: 14a7 93bd bbb0 0f3d 0238 c3bc 3aff ecbd
00000170: 2ffc bcbd f643 a9bc 649a 97bc 2461 c9bd
00000180: 8ac3 02bd 0779 093d f55b 903d 5ff4 40bd
00000190: c88f 73bd 9c79 8abc d464 813d 093e d13d
000001a0: b949 e8bc a0a7 48bb eb6a 35bd 356c b43d
000001b0: 628a 093d 18ee 31bd 89ed d0bc f025 79bd
000001c0: 5fd4 ee3c 20ff b8bd 5cb5 bebd 5595 dcbd
000001d0: d7b7 87bd 7800 453e ab5d e13d ac86 0d3e
000001e0: c90d 593e d2a7 553e 49b7 5e3e c6e2 093e
000001f0: cd5d 3b3e d1a4 203e d111 883c 83c8 1f3e
00000200: 150a b33d 7225 b23d 6567 3f3e 7a2c 733d
00000210: 7b0c ef3d b2d4 ab3d 53c5 ab3c dbbc 043d
00000220: fbc0 4abd d1de ae3c 3ba9 853d 9ec2 133c
00000230: f155 6a3d a641 ddbc 35cd 1a3d 3e29 80bd
00000240: 8685 4a3c b4b5 fb3d 38c4 3c3e b68c a9bd
00000250: b304 6e3d 2d18 ee3d 6cbe 95bc 2aae 463d
00000260: 2b14 133e ee9a 10bb 633b bd3d e68f 2b3d
00000270: 580d 42bd cf27 a9bd 08ac 17bd 10d7 1d3c
00000280: 5008 0a3d fb12 dd3b 1cae acbd ff5f a93d
00000290: 90d5 1e3c 3333 0e3d eaa0 e93c accd e7bc
000002a0: 29a1 1e3d da7d 033d e539 083c 0db4 23bd
000002b0: 4d09 043d 0110 243e c234 f43b f7c1 8ebc
000002c0: feab 8fbd c365 1f3d 80a9 933d ffcd 34be
000002d0: d48d 8a3d 22eb dabc 667f f63d a34a 423d
000002e0: 8789 61ba 7f1f 5c3e f453 1ebd 6fd3 db3d
000002f0: f482 fc3d 70b9 01bd 1e4b 2fbd 7d5c 793d
00000300: 9b4c bdbd ca4d a13b 4e09 b23d ab63 3a3c
00000310: 124e 45bd 11e5 0f3d 0807 413b e90b d1bd
00000320: d81a 91bd a49d 1bbe c312 97bc 53ec 9439
00000330: 11da 83bd 46e8 473b 45c3 cb3d df38 20be
00000340: 5ac4 12be 3a6c 213d 8e2b 00bd 8891 d43b
00000350: fffb 8e3d a7a7 1cbe f67c 4c3c fed2 e93d
00000360: 283d 22bc f521 5f3d 1982 a03d 81e5 2ebd
00000370: 2e0d 8abd 31fd 123e 4ae7 b2ba 92e5 803b
00000380: 8da3 9c3e df4a 1dbe 77a1 4bbe e60d fcbd
00000390: a7a8 c8bd 2960 ebbd 0188 55be bf3e 9fbd
000003a0: f46f 5abd 2624 aebd 265d 9abd 94a3 11be
000003b0: cffe e8bd ae0d 6abc 0214 c0bd 6a50 26be
000003c0: acdd dbbd 489f aabd c3c8 ddbd a29e 243d
000003d0: 792a 423b 3525 cc3d c1ff 863d da99 f03d
000003e0: 24b3 4cbd 7a36 b63d 86dd 393d 65a1 2dbe
000003f0: 8d25 b8bd fe6b 1cbe 7cb6 0cbe 3408 c3bd
0.09263475 -0.022943616 -0.0016989412 -0.04963184 -0.08896356 0.038482193 -0.06347762 0.010244781
-0.08216856 -0.062729076 -0.044078182 -0.037202306 0.006215927 0.0035519435 0.053222753 -0.030852258
0.08215426 0.053406935 -0.10772571 -0.10275401 -0.10225547 0.023152472 -0.017847009 -0.1096647
-0.06696047 -0.052720528 -0.10543319 0.074737504 0.15596393 0.030433312 -0.03909853 0.10607277
-0.01444695 0.015323329 0.042897526 -0.035637755 0.045173585 0.0052494886 0.09742768 -0.023241585
0.12616737 -0.068744525 0.011343357 0.13137715 0.005179777 0.052342467 0.11494916 0.15879723
0.109219044 0.032826856 0.15728687 0.21055414 0.16627118 -0.0062385155 0.11451109 0.13597295
0.14498417 0.04033999 0.16595414 0.007522154 0.16505016 -0.022837631 -0.05371261 -0.033905327
-0.043794017 0.018753467 -0.06188429 0.02472865 0.04590078 -0.012539069 0.046440378 -0.09292519
0.01524594 -0.0035445574 0.10185689 0.022526396 0.011317096 0.0012884167 0.17980605 0.014194225
-0.06640778 -0.06473443 -0.1080011 -0.06259262 -0.061737023 -0.022858512 0.049583655 0.018196048
-0.07209602 0.035080653 -0.023830418 -0.11572118 -0.09227788 -0.02066229 -0.018506236 -0.09832981
-0.03192476 0.033562686 0.070487894 -0.04710805 -0.059463292 -0.016903691 0.063180596 0.102169104
-0.028355466 -0.003061749 -0.044291418 0.08809701 0.033579238 -0.043439955 -0.02550389 -0.060827196
0.029154 -0.09033036 -0.09311935 -0.1077067 -0.066268615 0.1923846 0.11004194 0.13820904
0.21196665 0.208648 0.21749605 0.13465413 0.18297501 0.15687872 0.016610058 0.15603833
0.08742157 0.086985484 0.18691786 0.059368588 0.11672302 0.08390178 0.020968115 0.03240667
-0.049500447 0.021346482 0.06526419 0.009018568 0.057210866 -0.027008843 0.037793357 -0.06257866
0.012360936 0.122905165 0.18434227 -0.082787916 0.05810995 0.11625705 -0.018279277 0.04850594
0.14363162 -0.0022065002 0.09239843 0.04188528 -0.047376007 -0.08259546 -0.037029296 0.009633794
0.033699334 0.0067466474 -0.08431646 0.08270263 0.009694472 0.034716796 0.028519113 -0.028296314
0.038727913 0.032102443 0.008314584 -0.03996663 0.032235432 0.1602173 0.0074525783 -0.017426474
-0.07015227 0.038915407 0.07210064 -0.17656706 0.06765333 -0.026723448 0.12036018 0.04743446
-0.0008603562 0.2149639 -0.038654283 0.10733687 0.12329665 -0.031670988 -0.042796247 0.06087922
-0.09243127 0.0049226033 0.08693181 0.011376302 -0.048170157 0.035130564 0.0029453654 -0.1020735
-0.07085198 -0.15196854 -0.018441563 0.00028404835 -0.06438077 0.0030503436 0.09949354 -0.15646695
-0.14332715 0.039409854 -0.031291537 0.0064870752 0.06981658 -0.1529833 0.012480965 0.11417197
-0.009902276 0.054475743 0.07837314 -0.04269934 -0.06740795 0.14354397 -0.0013649252 0.003933617
0.3059353 -0.15360592 -0.19885813 -0.123073384 -0.09797793 -0.114929505 -0.20852663 -0.0777564
-0.053329423 -0.085029885 -0.07537298 -0.14222556 -0.11376726 -0.014285488 -0.09378816 -0.16241613
-0.1073564 -0.08331162 -0.10829308 0.040190347 0.0029627366 0.09968034 0.0659175 0.11748095
-0.04997553 0.08897109 0.045377277 -0.16956098 -0.08991537 -0.15275571 -0.13741487 -0.09523049

conv2.bias f4 [8]
00000000: 6ebc 35be cfd1 723d 2473 f6bd 6059 cc3d
00000010: 6eef 77be ac28 e33c 67cd 0dbd 1e07 373e
-0.17747661 0.05928212 -0.1203368 0.099779844 -0.24212429 0.027729355 -0.034619715 0.17873809

fc1.weight f4 [32, 512]
00000000: 16db f5bc f2c7 e4bb 8e9f 6b3c 9774 d5ba
00000010: 1c91 7b3b b112 46bd eff5 17bc 73f0 113d
00000020: 88d9 c1bc 6f7e 1ebc 17e2 1cbd 27da 8e3c
00000030: 4467 243d 4aaf 1d3d b71d 983c d259 a73c
00000040: 7001 2b3b d098 9f3c 45be 39bc a3e8 013d
00000050: 78f2 7fbc bf3b 9f3a 2b52 f63b 617c d2bc
00000060: f6ab a0bc be47 d83c 1791 873c 1e73 06bd
00000070: afad da3c b464 b73c d7c5 60bc 4e85 263d
00000080: 078a cf3a 3f41 2dbd 8f34 5fba 59a7 fdbc
00000090: e209 183d b2d0 a53c 3675 f2bb 3cfa 43bb
000000a0: 666b 883c 270f 25bd 194b 5e3c dee8 19bd
000000b0: 5d1b a6bc 31c2 3d3b 0f93 1c3c b512 053c
000000c0: 9880 9abb 139a 29ba 5453 fd3b 857e 3abc
000000d0: afac 1b3d b71a fb3c b286 e7bb bcc3 fc3c
000000e0: 012c a13a 44ba a53b ae61 4b3c 81d2 2a3d
000000f0: 6ff4 7dbb e6dc 053d f683 653c 1e94 30bd
00000100: fa50 8ebc a888 0abd 0eb5 08bd 4eeb 6e3c
00000110: 562c 5a3c 84d6 013d b004 093d b4c3 d33c
00000120: 67fc 91bc bf83 6c3c 5920 c7bc 2569 7fbc
00000130: dcb4 bd3c f4d5 083c 2147 b53a 2daa 8f3c
00000140: 21a8 09bd cef5 35bd ede4 313d ed79 b4bc
00000150: c021 b83a 5fc3 2abc d464 c23c 580e 05bd
00000160: 2dcd babc cc93 173d e7fd 9fbc 978a 3bbd
00000170: b508 10bd 4ac2 8d3b 71d9 333d 4e00 b1bb
00000180: 618e b5bc 91d0 163d 58e2 aabc ed75 54bd
00000190: d465 b3bb bb36 0a3d 7771 193d 4ffb dbbc
000001a0: f791 833c 912a 943c a006 d8bc d686 ccbc
000001b0: 2710 a2bb 7489 e3bb 1067 c73c ca8f 16bd
000001c0: f446 cf3c 4e24 47bc 365d 2e3c 9a6c 7cbc
000001d0: 99be 9d3c 8e57 163d bf85 97bc ab2b 9d3c
000001e0: efdf 163c 870d d2bc 4848 03bb e3af 29bd
000001f0: 2d43 d83c 30c6 6fbb f198 05bd 3e81 5d3a
00000200: 3ba8 043d fd17 13bc 99b7 1d3d 5b33 0bbd
00000210: 2f9b ecbc 9cd1 333d 1db8 10bd 67c6 c3ba
00000220: 4b8b f43c 9101 36bd 96a5 f0bc b7d5 f6bc
00000230: 67e0 16bb f7a4 8a3c 8903 693c 0394 7f3c
00000240: 5355 193d 6a83 2ebd 7516 193b dcde ed3c
00000250: c1a8 a6ba f3d1 cabc ba92 493c 3ff2 603c
00000260: 1b43 313d d9d6 89bc a920 443d 9c4d 0ebd
00000270: af4f 83bc 7bfc ffbc 1056 c93b 401f 36bc
00000280: 571e 04bd 164d b9bc a00a ee3c 7668 e33c
00000290: 8915 ce3c 39a5 18bd 2a53 32bc d296 853a
000002a0: a658 273c 4b73 0fbd 669e 02bd 5ff6 0cbd
000002b0: 9014 253d cf19 9e3c 47c0 1b3c c767 f63b
000002c0: fd9e 79bc e60a 0dbd 3d15 9c3c 3cd5 3e3d
000002d0: d7a3 7ebc c843 14bd c42d d5bc 474d 06bd
000002e0: 173b fe3a 9ca9 c93c aca5 ad3b b408 adbc
000002f0: f19c 1e3d d90f 44bc 618b 313b d601 8e3c
00000300: be81 ebbb d298 6dbc 3bdb 163d 2f9b 853c
00000310: dcc1 023d c166 b2bc 1ab0 23bd 9149 19bb
00000320: ad65 7cbc 6131 52bc 6163 13bd 4db7 68bc
00000330: 01f0 2b3d b2f0 3b3d 8fc5 5b3c ead2 34bc
00000340: 33b3 24bd 5e26 d23b ca30 8abc bcc6 083d
00000350: 7855 0f3d 3364 303d 4b3b 0ebd fa71 bd3b
00000360: dc7c 28bd 8ac3 b2bb 9fd9 20bc 0ac9 023d
00000370: 81c6 313d 35b2 103d b6ba d4bc 6e99 0b3d
00000380: 9776 18bd acf4 2d3c 648d 733c 3279 05bd
00000390: 5722 0cbc 6c51 fa3c 7683 ab3c 9f21 263b
000003a0: 7e1e 49bd 5cc4 133d 03dc 80bc 9398 49bc
000003b0: 074a 9abc ecb9 c0bc 752e 95bb 3b26 13bd
000003c0: 6ea4 cebb 3d87 f9bc 5296 19bd 947e 1cbd
000003d0: 77d1 3f3d e7c2 f13c 1202 63bc 22c6 16bd
000003e0: 48a8 0e3c 7987 1dbd 4cbd bf3b 9717 0cbd
000003f0: ea06 173d 884e 17bd 310a 06bd cc4d 39bd
-0.030011695 -0.006981843 0.0143813025 -0.0016285357 0.0038386052 -0.04835767 -0.009274944 0.0356297
-0.023663297 -0.009673699 -0.038301554 0.017438008 0.040137544 0.038497247 0.018568857 0.020428572
0.0026093386 0.019482046 -0.011336868 0.031716 -0.015621774 0.0012148543 0.0075171194 -0.025694074
-0.019613247 0.026401397 0.016548676 -0.032824628 0.026694147 0.022386886 -0.013719044 0.040654473
0.0015833982 -0.04229855 -0.0008514607 -0.030963587 0.0371188 0.020241115 -0.0073992265 -0.002990379
0.016652774 -0.040297654 0.013567709 -0.037575595 -0.02027672 0.0028954858 0.009556546 0.008122136
-0.0047150366 -0.0006469797 0.0077308808 -0.011382704 0.03800648 0.030652387 -0.0070656175 0.030855052
0.0012296439 0.005057605 0.012413425 0.04170466 -0.003875043 0.03268137 0.014008513 -0.043110006
-0.017372597 -0.03382173 -0.033375792 0.014582468 0.013316235 0.03169872 0.033451736 0.025850154
-0.01782055 0.014435708 -0.024307417 -0.015589033 0.02315753 0.008351792 0.0013830402 0.0175372
-0.033607606 -0.04442387 0.04343121 -0.022030795 0.0014048144 -0.010422557 0.02372972 -0.032484382
-0.022802914 0.037006184 -0.01953025 -0.045786466 -0.035164554 0.0043261396 0.04390854 -0.0054016476
-0.022162618 0.03682 -0.020859882 -0.051870275 -0.0054747853 0.0337436 0.037461724 -0.026853232
0.016060812 0.018086703 -0.026370347 -0.024966639 -0.004945773 -0.006943876 0.024341136 -0.03675822
0.025302388 -0.012154652 0.01064234 -0.015406752 0.019255923 0.036704592 -0.018496392 0.019185862
0.009208663 -0.025641216 -0.0020032097 -0.041427504 0.02639922 -0.0036586635 -0.03261656 0.00084497395
0.032387 -0.008977887 0.03850517 -0.033984523 -0.028882591 0.04390107 -0.035331834 -0.0014936448
0.029851576 -0.044435088 -0.029375833 -0.030131204 -0.0023021938 0.016924364 0.014222034 0.015599254
0.037434887 -0.042605795 0.0023359333 0.029036932 -0.0012715088 -0.024758315 0.012303049 0.013729631
0.043276887 -0.01682608 0.04788271 -0.034741983 -0.016029207 -0.031248322 0.0061442927 -0.011115849
-0.032255497 -0.022619765 0.0290578 0.027759772 0.025156753 -0.037266944 -0.010884086 0.0010192043
0.0102140065 -0.03502206 -0.03188934 -0.034414645 0.040302813 0.019299416 0.009506292 0.0075196954
-0.01523566 -0.03443422 0.019053096 0.046590075 -0.015541992 -0.036197454 -0.0260228 -0.03278854
0.0019396272 0.024617009 0.0052992906 -0.021122314 0.03872389 -0.011966669 0.0027091133 0.01733486
-0.0071870973 -0.014501767 0.03683017 0.016309349 0.03192316 -0.021777513 -0.039962865 -0.0023389796
-0.015405101 -0.012829156 -0.035983447 -0.014203859 0.041976932 0.04588384 0.013413801 -0.011036614
-0.04020996 0.006413265 -0.016868968 0.033392653 0.03499362 0.043064307 -0.034724515 0.0057814093
-0.0411347 -0.005455439 -0.00981751 0.031930007 0.0434022 0.0353262 -0.025967937 0.03408187
-0.03722247 0.010617416 0.014865253 -0.032586284 -0.008553109 0.030556403 0.020936709 0.002534963
-0.049101345 0.036075935 -0.01572991 -0.012304443 -0.018834127 -0.023526154 -0.0045526573 -0.03592513
-0.0063062226 -0.030459994 -0.037496872 -0.03820665 0.04683062 0.029511882 -0.013855474 -0.036810048
0.008707114 -0.038459275 0.0058514234 -0.034202185 0.03687183 -0.036940128 -0.032724563 -0.04524021

fc1.bias f4 [32]
00000000: 264a 103d 3cd7 1d3d c5d7 9abc 13fc 873d
00000010: 3e0f 24bd 0392 7fbd 1b8f e1bc a424 2fbb
00000020: 8ac6 4fbd 90ac 4d3c 731c b0bc d054 ecbc
00000030: 14a2 a73c d73a bbbc 8af4 aa3b e0e4 01bd
00000040: 3a34 2f3d 56c4 bb3b 57c0 adbc 1496 dcbb
00000050: 5980 343d 20da 88bc 10e7 3f3c f4f2 813c
00000060: 9f99 a2bc 687c 7c3c d84b 00bc 722d 1b3d
00000070: 2891 4cbc f3ac 393d b26f 023d b56b 9f3c
0.035226963 0.03853534 -0.018901715 0.06639876 -0.0400536 -0.062395107 -0.027534058 -0.002672472
-0.05072645 0.012553349 -0.02149794 -0.028849036 0.020463027 -0.022855205 0.0052171396 -0.031712413
0.042774417 0.005730192 -0.021209879 -0.006731758 0.044067714 -0.016705573 0.011712804 0.01586292
-0.019848643 0.01541052 -0.007830583 0.037885137 -0.01248578 0.045330953 0.031844802 0.019460538

fc2.weight f4 [2, 32]
00000000: 9492 85bd ce4a 133e b5cc 59be c282 ca3e
00000010: 7c78 debe fd97 debe 5948 e23d d02a 883e
00000020: a5a4 6ebe 9e8d 38be 7f31 80be 634e 28be
00000030: 46aa 87bc 4613 39bd 93c2 9abc f7cc 91be
00000040: 9651 963e 6aa2 073e 76af 6d3e fb2d c1be
00000050: 6746 f93e a4a1 c2be 13b7 27be 237d ac3e
00000060: bb75 e73e b37c 13be 1413 33bc 8ffb 05be
00000070: d007 9a3e 743c 993e 9845 98be db42 d33e
00000080: 18b4 a13d b495 09bd 15c6 1abd a67c e2be
00000090: fe5d fa3e a95b d73e 5493 bdbd 1b23 6abe
000000a0: 5e99 6a3e 861d b13e 18d5 143e 8bf6 a23b
000000b0: 1df0 b4bd e0ba 993e 51ca 71be a3fe c73e
000000c0: ea80 acbe 2241 4dbe 8d8a 58bd fe16 2f3e
000000d0: fb20 f7be 10b1 c83e dfc1 c0bd f0ee 71be
000000e0: 6819 cdbe 101e 443e ac5f 35bd 6b7c c3bd
000000f0: 60ff 7bbe 515a 53be a10c ed3d f315 d0be
-0.06522098 0.14384004 -0.21269496 0.39552885 -0.43451297 -0.43475333 0.110489555 0.26595163
-0.23304994 -0.18022773 -0.25037763 -0.16436152 -0.016560685 -0.045184396 -0.018891608 -0.28476688
0.2935912 0.1324555 0.23211464 -0.37730393 0.48686525 -0.38013947 -0.16378431 0.33689222
0.4520701 -0.14403038 -0.010929842 -0.13084243 0.30084085 0.29928935 -0.29740596 0.41261944
0.07895678 -0.033590034 -0.037786562 -0.44235724 0.48899835 0.4206212 -0.09256616 -0.22864954
0.22910067 0.34592837 0.14534414 0.004973238 -0.088348605 0.30025387 -0.23612334 0.3906146
-0.33692104 -0.20044377 -0.052866507 0.17098615 -0.4826735 0.39197588 -0.09411978 -0.23626304
-0.40058446 0.19152093 -0.044280693 -0.09545215 -0.24609137 -0.20639922 0.115746744 -0.40641746

fc2.bias f4 [2]
00000000: a846 67bd ff40 82bd
-0.056463867 -0.06360053
